custom_environments/SnakeGame/TrainedModels/DQN_local_network.pt (torch, 175143 bytes, 6 tensors)

hidden_layers.0.weight f4 [200, 11]
0	0xbd6847a8	-0.05670896
1	0x3e83653c	0.25663173
2	0xbd920ff8	-0.07131952
3	0x3e08e576	0.13368782
4	0xbd537254	-0.051622704
5	0xbe7696fd	-0.24081035
6	0x3dd89ce0	0.105767965
7	0xbe7bfa40	-0.24607182
8	0xbe23b31c	-0.15986294
9	0x3e6e7060	0.23285055
10	0x3e999b76	0.3000142
11	0x3e89be5e	0.2690305
12	0x3e1a7b7c	0.15086168
13	0x3e60f9d8	0.21970308
14	0x3e057c4c	0.13035697
15	0xbe6698d0	-0.22519231
16	0xbe325c49	-0.17418016
17	0x3e090140	0.13379383
18	0xbe4da317	-0.20081745
19	0xbcabca10	-0.020970374
20	0x3e289b00	0.16465378
21	0x3d6559a8	0.055993706
22	0x3d363e78	0.04449317
23	0xbe7dde1a	-0.24791756
24	0x3e184856	0.14871344
25	0xbdf59474	-0.11991206
26	0x3e594294	0.21216804
27	0x3e657290	0.22406983
28	0xbe47e755	-0.1952184
29	0x3d5b5730	0.053549945
30	0x3b754780	0.003742665
31	0x3e2fd538	0.1717118
32	0x3e4a7ff2	0.1977537
33	0xbe98090f	-0.2969441
34	0xbdcced20	-0.100061655
35	0x3e46c32c	0.1941039
36	0xbc7ca540	-0.015420258
37	0x3e88a762	0.26690203
38	0xbe61b64c	-0.22042197
39	0xbe946b19	-0.2898796
40	0xbe032fd5	-0.12811215
41	0xbe8a502e	-0.27014297
42	0x3d37fa98	0.04491672
43	0xbe441033	-0.19146805
44	0x3e0e4232	0.13892439
45	0xbe8ea8fe	-0.27863306
46	0x3e8be2d6	0.273215
47	0x3e806bea	0.25082332
48	0xbd45b7e0	-0.04827106
49	0xbe8316e1	-0.25603393
50	0x3dc20284	0.09473136
51	0xbe3e8276	-0.18604454
52	0xbd201db0	-0.039090812
53	0xbdad902e	-0.08474766
54	0xbe7da11a	-0.24768487
55	0x3e8674b8	0.26260924
56	0xbe39da2c	-0.18149632
57	0xbda41356	-0.080115005
58	0xbe96c4dc	-0.29447067
59	0xbdb9ea5c	-0.09077904
60	0xbe98d3b7	-0.29849026
61	0x3e4a15ee	0.19734928
62	0xbdfc05da	-0.123058036
63	0x3d0cf690	0.034414828
64	0x3e32f544	0.17476374
65	0x3d952e18	0.07284182
66	0xbe8755b6	-0.2643258
67	0xbe5978bc	-0.21237463
68	0xbe0c59be	-0.13706109
69	0xbe30abf5	-0.17253096
70	0xbe535e98	-0.20641553
71	0xbe8761dc	-0.26441848
72	0x3e85e99a	0.26154786
73	0xbe8644a4	-0.26224244
74	0xbdb18d44	-0.086695224
75	0x3c72d8c0	0.014822185
76	0xbcf72510	-0.03016904
77	0x3d7f7da8	0.062375695
78	0xbe818b21	-0.2530146
79	0x3e33d10a	0.17560211
80	0xbe892c59	-0.26791647
81	0xbe94632e	-0.28981918
82	0x3dd6c8c8	0.10487515
83	0xbe57b2ec	-0.21064347
84	0x3e91028c	0.28322256
85	0x3e41d98a	0.18930641
86	0xbccdedb0	-0.025137752
87	0x3e26da76	0.16294274
88	0x3e86ede8	0.26353383
89	0x3d883418	0.06650561
90	0xbe72c108	-0.23706448
91	0xbe63541c	-0.22200054
92	0x3e841de8	0.25804067
93	0x3e31395a	0.17307034
94	0xbd6b2b08	-0.057414085
95	0x3e057cfc	0.13035959
96	0xbd2ed928	-0.042687565
97	0xbde63a3c	-0.11241576
98	0xbe119548	-0.14217103
99	0x3e92d9b2	0.28681713
100	0xbc1e90a0	-0.009678036
101	0x3d93a4b0	0.07209146
102	0xbd26a2f8	-0.040682763
103	0xbd6e9d70	-0.058255613
104	0xbe72a784	-0.23696715
105	0xbe901e37	-0.28148052
106	0xbcd13b10	-0.025540859
107	0xbe6d637c	-0.23182482
108	0xbdbff140	-0.09372187
109	0xbd611498	-0.05495128
110	0x3d63e8a0	0.05564177
111	0xbd97b03c	-0.07406661
112	0x3d26eab0	0.04075116
113	0x3d98b080	0.0745554
114	0xbd881f1a	-0.06646557
115	0x3e7daa30	0.24771953
116	0x3dd56028	0.10418731
117	0x3b3b3900	0.002856791
118	0x3e36bca8	0.17845404
119	0xbe4e5712	-0.20150402
120	0x3e02d8fc	0.12778085
121	0xbe3ee23f	-0.18640994
122	0x3d579528	0.05263248
123	0xbe82ca49	-0.25544956
124	0x3e8e62fe	0.278099
125	0x3e5d72a8	0.21625769
126	0x3e42fd9c	0.19042057
127	0x3d980f04	0.07424739
128	0xbdb4d88a	-0.08830364
129	0xbe1e95aa	-0.1548678
130	0x3e2db910	0.16965127
131	0xbdf45448	-0.11930138
132	0x3e5d5b30	0.21616817
133	0xbe2bc59f	-0.16774605
134	0xbe51192d	-0.2041976
135	0xbe456721	-0.19277622
136	0x3e6f1d34	0.23350984
137	0xbe321b6e	-0.17393276
138	0xbe45a701	-0.19301988
139	0x3e96b8ec	0.2943796
140	0x3e457ad4	0.19285136
141	0xbd75e884	-0.060036197
142	0xbd593690	-0.05303055
143	0x3d8bf46c	0.06833729
144	0xbbfcdd00	-0.007716775
145	0x3d9cc164	0.07654074
146	0x3e47ced6	0.19512495
147	0x3e94ee56	0.29088086
148	0x3e830f1c	0.25597465
149	0xbdedc6fe	-0.116102204
150	0xbe6d4214	-0.23169738
151	0xbe00454d	-0.12526436
152	0x3e9879ac	0.29780328
153	0x3e903800	0.28167725
154	0x3e7ff9f8	0.249977
155	0x3e13b76a	0.14425436
156	0xbe4b4963	-0.19852214
157	0x3e2b4c0a	0.16728225
158	0xbe4eb154	-0.20184833
159	0x3e496028	0.19665587
160	0xbe96bb5b	-0.29439816
161	0xbe6ab848	-0.2292186
162	0xbd34dc00	-0.04415512
163	0xbe8ed3d4	-0.27895987
164	0xbcb975e0	-0.022639215
165	0x3e4bec4c	0.19914359
166	0xbc4acb60	-0.01237759
167	0x3d862f1c	0.06551954
168	0xbcbe7830	-0.02325067
169	0xbde04812	-0.10951246
170	0xbe064571	-0.13112427
171	0xbe4d39b2	-0.2004154
172	0xbd9b1cb0	-0.07573831
173	0x3cc3ad00	0.023886204
174	0xbe98f15a	-0.29871637
175	0x3e7b7fc0	0.24560452
176	0x3e9955fa	0.29948407
177	0x3e839e76	0.25706834
178	0xbe900ab4	-0.28133166
179	0x3df3ac2c	0.118980736
180	0xbe99afde	-0.3001699
181	0xbdb596c6	-0.088666484
182	0x3e73575c	0.23763794
183	0xbe955dd3	-0.29173145
184	0xbd8fee76	-0.07027905
185	0x3e98d33a	0.29848653
186	0xbe829bc3	-0.25509462
187	0x3e218dd8	0.15776765
188	0x388ca000	6.7055225e-05
189	0xbd2bd9f0	-0.04195589
190	0xbe7da798	-0.24770963
191	0xbd6930d4	-0.05693133
192	0xbe90c11f	-0.2827234
193	0xbe289b35	-0.16465457
194	0xbcf2b8e0	-0.02962917
195	0xbd554bc8	-0.052074224
196	0xbe722460	-0.23646688
197	0x3e8b63fe	0.27224725
198	0xbe492a62	-0.19645074
199	0xbb6c6700	-0.0036072135
200	0x3d12b038	0.035812587
201	0xbe87c811	-0.26519826
202	0x3d9ab654	0.075543076
203	0xbe993cc1	-0.29929164
204	0x3de66c34	0.11251107
205	0x3e8b6416	0.27224797
206	0x3cb79840	0.022411466
207	0x3e4fd79c	0.20297092
208	0xbe09d378	-0.13459575
209	0xbe7418c4	-0.23837572
210	0xbcdf3f50	-0.02725187
211	0xbdad1b2e	-0.0845245
212	0xbe1a9142	-0.15094474
213	0xbe0702ab	-0.13184611
214	0xbe3aea0a	-0.18253341
215	0xbe3bc76f	-0.18337797
216	0xbda59628	-0.08085281
217	0xbe134b6c	-0.1438424
218	0xbe439b75	-0.19102271
219	0x3e2cac6e	0.16862652
220	0x3dc88660	0.09791255
221	0xbe359f80	-0.17736626
222	0xbe955aa7	-0.29170725
223	0xbd9f6704	-0.077833205
224	0x3e93e96c	0.28889024
225	0xbd88d6c6	-0.0668159
226	0x3e4aacd8	0.19792497
227	0x3df0f4e0	0.11765456
228	0xbe123a33	-0.14280014
229	0x3e8ab40c	0.2709049
230	0xbe8be243	-0.27321061
231	0x3e9152c8	0.2838347
232	0xbe5ff038	-0.2186898
233	0x3e8c4956	0.273997
234	0x3d28a1e8	0.04117003
235	0xbdebb19a	-0.11508484
236	0x3dc4ceec	0.0960978
237	0xbe5fc2da	-0.21851674
238	0xbce21f70	-0.027602881
239	0xbe8996f0	-0.2687297
240	0x3e05effe	0.13079831
241	0x3e85854c	0.2607826
242	0xbdf08f42	-0.11746074
243	0xbe8350cd	-0.25647584
244	0x3e20a286	0.15686998
245	0xbd9c9000	-0.07644653
246	0xbe207ea9	-0.15673317
247	0xbe36c73c	-0.1784944
248	0x3e4530e8	0.19256938
249	0x3e8d8330	0.2763915
250	0x3e019918	0.12656057
251	0x3e0e1a94	0.13877326
252	0x3d443c60	0.04790914
253	0x3e88eb04	0.26741803
254	0x3e2fab7c	0.1715526
255	0xbdf1d600	-0.118083954

hidden_layers.0.bias f4 [200]
0	0xbd85ead2	-0.06538929
1	0xbd9fa088	-0.07794291
2	0xbe70dd94	-0.23522025
3	0xbd0d5000	-0.034500122
4	0x3e931dd6	0.287337
5	0x3e84e934	0.2595917
6	0xbe648464	-0.22316128
7	0xbe28307b	-0.16424744
8	0xbe369f49	-0.178342
9	0xbe8ae323	-0.27126417
10	0x3c87b870	0.016567439
11	0xbdc7d26a	-0.0975693
12	0xbdf9c240	-0.12195253
13	0xbe439d72	-0.1910303
14	0xbe4741e6	-0.19458732
15	0x3e8515ac	0.25993097
16	0xbe11cb4f	-0.14237712
17	0xbe80a978	-0.25129294
18	0x3c5ed4c0	0.013600528
19	0xbe8a482a	-0.27008182
20	0x3e3ca418	0.18421972
21	0x3daa9fac	0.08331236
22	0x3defd45c	0.11710426
23	0x3d0b99b0	0.034082115
24	0xbe91b011	-0.2845464
25	0xbe13cd13	-0.14433698
26	0xbd863932	-0.06553878
27	0x3e826ac0	0.2547207
28	0xbc811190	-0.015755445
29	0xbdea9182	-0.11453535
30	0x3d8828fc	0.06648442
31	0x3e82e64e	0.25566334
32	0xbe6b082a	-0.22952333
33	0x3e8fa0f6	0.2805249
34	0xbd4bbfa0	-0.049743295
35	0xbe06b5f4	-0.13155347
36	0xbde4efde	-0.111785635
37	0x3d1d6b78	0.03843257
38	0x3e86d88e	0.26337093
39	0x3e689164	0.22711712
40	0x3e80c3b8	0.25149322
41	0xbe2dccd8	-0.16972673
42	0xbe2b4cb7	-0.16728483
43	0xbd48f368	-0.049060255
44	0xbd5c8c60	-0.05384481
45	0xbe46127c	-0.19342989
46	0xbe078f39	-0.13238229
47	0xbdaabc58	-0.08336705
48	0x3d1633d8	0.036670536
49	0x3e87058a	0.26371413
50	0x3d735388	0.059405833
51	0x3e4fa880	0.20279121
52	0xbd88e1b0	-0.066836715
53	0xbe46e744	-0.19424158
54	0x3e14478e	0.14480421
55	0xbe92ccfe	-0.28672022
56	0x3e7b346c	0.24531716
57	0x3c1dc120	0.009628564
58	0xbe45f3e4	-0.19331318
59	0xbd5242c8	-0.05133322
60	0x3e51a818	0.20474279
61	0x3d035d88	0.03207162
62	0x3e8ce736	0.2752015
63	0x3e8018aa	0.25018817
64	0xbd8d8a08	-0.06911093
65	0xbe4f8934	-0.20267183
66	0x3e3065f6	0.17226395
67	0xbd70dac4	-0.05880238
68	0xbe62c172	-0.22144106
69	0x3d92f6b8	0.07175964
70	0x3e8557d8	0.26043582
71	0x3e1d8b08	0.15385067
72	0x3e813a4c	0.2523979
73	0x3e51a0d8	0.20471513
74	0xbe9353bd	-0.28774825
75	0x3ddf10e0	0.108918905
76	0x3e8d0b52	0.275477
77	0x3d2af660	0.041738868
78	0x3e4ffe30	0.20311809
79	0x3e4bcda4	0.19902664
80	0xbcbab390	-0.0227907
81	0x3dc8083c	0.097671956
82	0xbd88c77e	-0.06678675
83	0x3e482ccc	0.19548339
84	0x3e4e71fc	0.20160669
85	0x3d8dc598	0.06922454
86	0x3e8b934a	0.2726081
87	0x3e8e3a22	0.27778727
88	0xbbc48880	-0.0059977174
89	0xbdb2846a	-0.08716662
90	0x3de2aa7c	0.110676736
91	0x3e34e8c4	0.17666918
92	0x3e95525c	0.29164398
93	0xbe82d08c	-0.25549734
94	0xbe523d29	-0.20531143
95	0x3e99cdf8	0.30039954
96	0x3d255da0	0.04037249
97	0xbd7d3d3c	-0.061825976
98	0xbdd9f3b2	-0.10642184
99	0x3e66a044	0.22522074
100	0xbe0973f7	-0.13423143
101	0xbdf72cc2	-0.12069084
102	0x3e7507bc	0.23928732
103	0x3e971308	0.29506707
104	0x3e20d562	0.15706399
105	0x3d0a81a8	0.033815056
106	0xbe877302	-0.26454931
107	0xbc3ac780	-0.011400104
108	0xbe682510	-0.22670388
109	0x3e208b92	0.15678242
110	0xbe87d576	-0.26530045
111	0x3e75f74c	0.24020118
112	0x3e3ee9be	0.18643853
113	0x3e288838	0.16458213
114	0x3df14a3c	0.11781737
115	0xbde7ea9a	-0.113240436
116	0xbe23e12f	-0.1600387
117	0x3d16f9b8	0.036859244
118	0xbd286330	-0.041110218
119	0x3d1f1368	0.038836867
120	0x3d4279a0	0.047479272
121	0x3d2428e8	0.040078074
122	0xbe0adee4	-0.13561589
123	0x3e88572a	0.26629
124	0xbe824e66	-0.25450438
125	0xbe810943	-0.2520238
126	0x3e85d36e	0.2613787
127	0xbe845c92	-0.25851876
128	0x3dbe3b34	0.09288636
129	0xbe5cdfb4	-0.21569711
130	0xbe3b350a	-0.18281952
131	0xbc29d2c0	-0.010365188
132	0x3e9688ee	0.29401344
133	0xbe3a01b7	-0.18164717
134	0x3cfb74b0	0.03069529
135	0x3b097600	0.0020974874
136	0xbe5e3c0c	-0.21702594
137	0x3cb0ff10	0.021605998
138	0xbd88a402	-0.06671907
139	0x3d700708	0.058600456
140	0x3e6ae3a0	0.22938395
141	0x3c7f8080	0.015594602
142	0x3e8d0e2c	0.27549875
143	0xbe357bc5	-0.17722996
144	0x3e871300	0.26381683
145	0x3e0a46ba	0.13503543
146	0x3e97cc1c	0.2964791
147	0xbd126ba8	-0.0357472
148	0xbe5ea0c4	-0.21741015
149	0x3c67a0a0	0.014137417
150	0xbe04a9e6	-0.12955436
151	0xbe7194cd	-0.23591919
152	0x3e8c5f78	0.27416587
153	0xbe97b222	-0.29628092
154	0xbe95a4d9	-0.2922733
155	0xbda9699e	-0.08272098
156	0x3e72b374	0.23701268
157	0xbd870b5e	-0.06593965
158	0xbd2145c0	-0.03937316
159	0xbd046f38	-0.03233263
160	0xbe827d72	-0.25486332
161	0xbceeab60	-0.029134452
162	0x3e59e748	0.21279633
163	0xbdc59f9c	-0.09649584
164	0xbe346b0e	-0.17618963
165	0xbe92bfa4	-0.28661835
166	0xbe439830	-0.19101024
167	0xbe8956c7	-0.26824018
168	0xbd969f14	-0.073545605
169	0x3d989730	0.07450712
170	0xbe4915d0	-0.19637227
171	0x3e1c7182	0.15277675
172	0xbe7edfc8	-0.24890053
173	0x3e771008	0.24127209
174	0xbd696774	-0.056983426
175	0x3e29e922	0.1659284
176	0x3df3b3c8	0.11899525
177	0x3e470034	0.19433671
178	0x3d20c810	0.039253294
179	0xbc64b1a0	-0.013958365
180	0xbe63bf7c	-0.22241014
181	0xbd9b7e26	-0.0759242
182	0x3d5d1ba0	0.053981423
183	0xbc4d6380	-0.01253593
184	0x3da1f350	0.07907736
185	0xbe670040	-0.22558689
186	0xbd2249e0	-0.039621234
187	0xbe19e2c2	-0.15027907
188	0xbe994cf6	-0.2994153
189	0x3e7fc5b0	0.24977756
190	0xbe99db57	-0.30050156
191	0xbe8769b1	-0.26447824
192	0x3d3dee40	0.04636979
193	0x3e18008a	0.14843956
194	0xbe0e25d2	-0.13881615
195	0xbdc38b1e	-0.09548019
196	0xbe84d901	-0.2594681
197	0xbcc798d0	-0.024364859
198	0x3e06b414	0.13154632
199	0x3de6adac	0.11263594

hidden_layers.1.weight f4 [200, 200]
0	0xbd4138c6	-0.047173284
1	0xb9930600	-0.00028042495
2	0xbd8e70b4	-0.0695509
3	0xbd54f32e	-0.051989727
4	0x3d88ac77	0.0667352
5	0xbd5f0aba	-0.05445359
6	0x3b1b8fe0	0.002373688
7	0x3d2c448a	0.04205755
8	0x3cffa97c	0.031208746
9	0x3d88ea3b	0.06685301
10	0xbc9f040e	-0.019411113
11	0x3ce4df24	0.027938433
12	0xbcd18462	-0.02557582
13	0xbd8de470	-0.069283366
14	0xbd41df48	-0.04733208
15	0x3d686432	0.05673618
16	0xbd2e1458	-0.04249987
17	0x3d03dc8e	0.03219276
18	0x3d805ed7	0.06268089
19	0xbd8e0af7	-0.06935685
20	0xbbfdbf20	-0.007743731
21	0xbcac46cc	-0.021029852
22	0x3cc044b4	0.02347026
23	0x3c126cb0	0.008937046
24	0x3c6a5df0	0.014304623
25	0xbc31a0e0	-0.010841578
26	0xbd8b313b	-0.06796499
27	0x3d800043	0.0625005
28	0x3cdeccec	0.027197324
29	0xbca76122	-0.020432059
30	0x3bb97770	0.00565999
31	0x3c98319c	0.018578343
32	0x3d54326c	0.0518059
33	0x3a4b8400	0.0007763505
34	0x3c4c82f0	0.01248239
35	0xbc9317ce	-0.017955687
36	0x3cf881f4	0.030335404
37	0x3d800549	0.06251008
38	0x3d20ab3c	0.0392258
39	0x3d577bf8	0.05260846
40	0xbd820f47	-0.0635057
41	0x3d507e76	0.050901853
42	0x3d2a3f66	0.041564368
43	0xbd58a0b8	-0.05288765
44	0xbd72e7e0	-0.059303164
45	0xbd67b2ce	-0.056567006
46	0x3d800aa7	0.06252032
47	0xbd6f7b32	-0.058467098
48	0x3ce638e4	0.0281033
49	0xbc8be97c	-0.017079107
50	0x3d54a808	0.05191806
51	0xbd840431	-0.06446112
52	0x3c99432c	0.018708788
53	0xbc9096d0	-0.017650038
54	0x3a919740	0.0011107698
55	0x3d186352	0.037204094
56	0x3c5808f8	0.013185732
57	0xbd07082c	-0.032966778
58	0xbd75a599	-0.05997238
59	0x3d369b44	0.044581667
60	0xbd2946db	-0.04132734
61	0x3d3cf6f0	0.046133935
62	0xb9e69900	-0.00043983012
63	0xbd315916	-0.04329785
64	0xbc51b4dc	-0.012799468
65	0xbc0df468	-0.008664228
66	0xbd724dde	-0.05915629
67	0xbbc6d2e0	-0.0060676187
68	0xbd8206b0	-0.06348932
69	0x3ac574c0	0.0015064701
70	0xbd4ac615	-0.049505312
71	0xbd7a3ad2	-0.06109125
72	0x3d8377cb	0.06419333
73	0xbc2c6474	-0.010521997
74	0x3abee540	0.0014564171
75	0x3d6587ae	0.056037597
76	0x3d8acba1	0.067771204
77	0x3c192818	0.009347938
78	0xbd5c41b4	-0.053773597
79	0x3c4f6200	0.012657642
80	0x3d2c3a72	0.042047925
81	0x3d532d64	0.05155696
82	0x3c6dd138	0.014515214
83	0xbd1af5da	-0.03783212
84	0xbd403610	-0.046926558
85	0xbd20982c	-0.039207622
86	0xbcc2c9ca	-0.023777861
87	0x3d4852ac	0.048906967
88	0xbca4f2ca	-0.020135302
89	0x3a93cc80	0.0011276156
90	0x3d06df52	0.03292782
91	0xbd46085e	-0.048347823
92	0xbc99a22e	-0.018754091
93	0xbd40367c	-0.04692696
94	0xbd5b3a8e	-0.05352264
95	0x3c91b294	0.017785348
96	0x3b016120	0.001974173
97	0xbd142425	-0.036167283
98	0xbd17a610	-0.037023604
99	0xbc28f490	-0.0103122145
100	0x3d26ec54	0.040752724
101	0xbd856c10	-0.06514752
102	0xbd84088d	-0.064469434
103	0xbd1dd881	-0.038536552
104	0x3d83feed	0.064451076
105	0x3ca1e97c	0.019764654
106	0xbccd7080	-0.025078058
107	0xbd62371a	-0.05522833
108	0x3c62c070	0.013839826
109	0xbd23358e	-0.039845996
110	0xbd1861fd	-0.037202824
111	0xbc8ffbde	-0.017576154
112	0x3d7b3b66	0.061335944
113	0x3c32a888	0.010904439
114	0x3d5d88d4	0.054085568
115	0xbd1c336c	-0.038134977
116	0xbd5543c8	-0.052066594
117	0xbc2ef1e4	-0.010677788
118	0xbc378480	-0.011201024
119	0xbcc941f2	-0.024567578
120	0xbb1bac20	-0.0023753718
121	0x3c3e9878	0.011633031
122	0xbcef937e	-0.029245134
123	0xbbfa2f00	-0.0076349974
124	0xbd1a4d7f	-0.037671562
125	0xbd1cb7b4	-0.03826113
126	0x3d202640	0.039098978
127	0x3d65dbb2	0.05611772
128	0xbce01098	-0.027351663
129	0xbd8e8598	-0.06959075
130	0x3d87a7d3	0.06623807
131	0xbd167c9c	-0.03673993
132	0x3ce3dedc	0.027816229
133	0xbd11bbe9	-0.035579596
134	0xbd7397b2	-0.05947084
135	0x3d894a25	0.06703595
136	0xbc1087c8	-0.008821435
137	0x3d283e04	0.041074768
138	0x3d898847	0.06715446
139	0xbd8b682a	-0.06806977
140	0xbcd3b57a	-0.02584337
141	0xbcdbfdaa	-0.026854355
142	0x3d365120	0.04451096
143	0xbd4475f0	-0.047964036
144	0x3d74235e	0.05960404
145	0xbd0485a6	-0.03235402
146	0xbcb8d8f8	-0.022564396
147	0xbb993860	-0.00467591
148	0xbb9db6e0	-0.00481306
149	0x3b730380	0.0037080944
150	0x3d80ae11	0.062832005
151	0xbcf6b69a	-0.030116368
152	0x3d87b4bb	0.066262685
153	0xbd9090d5	-0.070588745
154	0x3b4ff900	0.003173411
155	0x3d8e3c11	0.069450505
156	0x3d8e4bff	0.06948089
157	0x3c83f224	0.016106673
158	0x3c8e3c2c	0.017362677
159	0xbc741104	-0.014896635
160	0x3d37439a	0.044742204
161	0xbca44fca	-0.020057578
162	0x3d25dd50	0.040494263
163	0xbb800e60	-0.0039079636
164	0xbd23a55e	-0.03995263
165	0x3d2cfd70	0.042233884
166	0x3c0b20d8	0.008491717
167	0x3cd6af34	0.02620659
168	0xbd3bbfda	-0.04583726
169	0xbd1fc085	-0.03900196
170	0x3d3657c6	0.0445173
171	0xbd448f94	-0.04798849
172	0x3cba57bc	0.022746913
173	0xbc0e780c	-0.008695614
174	0x3cbec930	0.023289293
175	0xbc8f1ef8	-0.017470822
176	0x3c8e4c88	0.017370477
177	0x3bf4a730	0.0074662194
178	0x3d21b4ca	0.039479055
179	0xbc2cb12c	-0.010540288
180	0x3d21c55e	0.039494865
181	0xbd222d6e	-0.039594106
182	0x3d2d8498	0.04236278
183	0xbccdcbf2	-0.025121663
184	0xbbaae880	-0.0052157044
185	0xbc86c89a	-0.016453076
186	0xbcfbc93e	-0.030735608
187	0xbd4db5e8	-0.050222307
188	0x3b4fc4a0	0.003170289
189	0xbd455cde	-0.04818427
190	0xbc4af428	-0.012387313
191	0xbcff1946	-0.031139981
192	0x3ca677d8	0.020320818
193	0x3d21bfb8	0.039489478
194	0xbd3a0476	-0.04541441
195	0xbd81fa01	-0.063465126
196	0xbc075184	-0.008259181
197	0xbd8f6663	-0.070019506
198	0x3d476b40	0.048686266
199	0x3d3969ca	0.045266904
200	0xbb6335c0	-0.0034669489
201	0x3cb90438	0.02258502
202	0x3d39c2a2	0.045351632
203	0xbd131234	-0.03590603
204	0xbcbee732	-0.023303602
205	0x3c7cf218	0.015438579
206	0x3c012858	0.007883154
207	0x3d65f8d6	0.05614551
208	0x3b724f40	0.0036973506
209	0x3d039190	0.03212124
210	0xbb2a6b80	-0.0026004016
211	0xbbf26c40	-0.0073981583
212	0x3d333834	0.04375477
213	0xbc0e8e98	-0.008700989
214	0xbb6c4640	-0.0036052614
215	0x3cb8e168	0.02256842
216	0x3d55ce76	0.05219885
217	0x3d7ae722	0.06125558
218	0x3cf1f018	0.029533431
219	0x3ca3a3e8	0.019975618
220	0xbd023ad3	-0.03179438
221	0xbce359e4	-0.027752824
222	0x3d7b8bca	0.06141261
223	0x3d80ecdb	0.062951766
224	0xbc755aec	-0.014975291
225	0xbd6e31ac	-0.05815284
226	0x3d5954c6	0.053059362
227	0x3d78d06e	0.06074565
228	0x3d22d026	0.039749287
229	0x3bb8cb30	0.005639456
230	0x3d3becd8	0.04588017
231	0xbc4c5948	-0.012472458
232	0x3d692f72	0.056930013
233	0xbd4ffeae	-0.05077999
234	0x3d39270c	0.045203254
235	0x3c7d9e80	0.015479684
236	0x3d229148	0.039689332
237	0xbd1e473a	-0.038642146
238	0x3b44d500	0.0030034184
239	0xbc7505a4	-0.014954958
240	0x3d4605e6	0.04834547
241	0x3d198472	0.037479825
242	0xbb4e72e0	-0.0031501576
243	0x3c6f64a0	0.014611393
244	0x3acc7d00	0.0015601218
245	0xbd462dc2	-0.04838348
246	0xbd86b787	-0.06577974
247	0xbc92bc4a	-0.017912049
248	0x3caf6da4	0.021414585
249	0x3d7babae	0.061443023
250	0x3d37496c	0.044747755
251	0x3c170ef8	0.009219877
252	0xbcfb2548	-0.030657426
253	0xbd35f842	-0.04442621
254	0xbca8996e	-0.020580973
255	0xbc8c5968	-0.017132476

hidden_layers.1.bias f4 [200]
0	0xbd70d4d4	-0.05879672
1	0xbc310f88	-0.010806926
2	0x3c9c58f8	0.019085392
3	0x3d0f3f00	0.03497219
4	0xbc3f8584	-0.011689547
5	0xbbe0ab90	-0.0068563893
6	0x3bbb0380	0.0057072043
7	0x3cf67ec8	0.03008975
8	0x3ca88608	0.020571724
9	0x3ca0df78	0.019637808
10	0x3c8e4150	0.017365128
11	0x3d882f3f	0.066496365
12	0xbc475b4c	-0.012167763
13	0x3d6cbdee	0.05779832
14	0xbd50476a	-0.050849356
15	0x3d2b29ca	0.0417879
16	0xbd6648aa	-0.05622164
17	0xbcebabc0	-0.02876842
18	0xbc16330c	-0.009167444
19	0xbd17a709	-0.03702453
20	0x3d1c7ad0	0.03820306
21	0x3d68f8c2	0.05687786
22	0xbbb177e0	-0.0054159015
23	0xbd488b52	-0.04896099
24	0xbccf00d0	-0.025268942
25	0x3d717a7e	0.05895471
26	0x3861b800	5.3815544e-05
27	0xbd80aa1c	-0.06282446
28	0x3d479588	0.04872659
29	0x3d254fbe	0.04035925
30	0xbd6bf13c	-0.057603106
31	0x3bd8a1b0	0.0066110715
32	0x3d50f75c	0.05101715
33	0xbd1e0f82	-0.03858901
34	0x3d372bd6	0.04471954
35	0x3b8079f0	0.003920786
36	0x3cb5f68c	0.02221229
37	0x3cd9a9ac	0.026570164
38	0xbb2bcc40	-0.0026214272
39	0xbc9e4400	-0.019319534
40	0x3c640768	0.013917781
41	0x3d1d2020	0.038360715
42	0xbc469440	-0.0121203065
43	0xbd732302	-0.059359558
44	0x3d3bdf86	0.045867465
45	0x3d62344a	0.055225648
46	0xbd35fab0	-0.044428527
47	0xbd2d85d6	-0.042363964
48	0x3c501988	0.0127014
49	0xbd5a46f0	-0.053290308
50	0xbd56971e	-0.05239021
51	0x3c9852dc	0.018594198
52	0x3d6bb73e	0.0575478
53	0xbcd48c90	-0.025945932
54	0xbd457b46	-0.048213266
55	0xbbfab2b0	-0.0076506957
56	0x3c506d60	0.0127213895
57	0x3d356b04	0.04429151
58	0x3cf34450	0.02969566
59	0x3bfba340	0.007679373
60	0x3c371288	0.011173852
61	0x3ca067dc	0.019580774
62	0x3d38f208	0.045152694
63	0xbd747b06	-0.059687637
64	0xbd42d3d0	-0.04756528
65	0x3d4a364a	0.04936818
66	0xbcbb2b6e	-0.022847857
67	0xbd56ec5c	-0.052471504
68	0xbd12c1e9	-0.03582946
69	0xbd33923c	-0.04384063
70	0xbd6b3b37	-0.05742952
71	0xbd78d0ef	-0.06074613
72	0x3ca4ab78	0.020101294
73	0x3d574b06	0.052561782
74	0x3d86a147	0.0657373
75	0xbc1961e4	-0.009361718
76	0x3d80375f	0.06260561
77	0xbd831c1a	-0.06401844
78	0x3b23f0c0	0.0025015324
79	0x3d59e68a	0.053198375
80	0x3d8d8cfb	0.069116555
81	0x3d35cb96	0.044383608
82	0x3c4cf100	0.012508631
83	0xbd4ef1ee	-0.05052369
84	0xbd129e7a	-0.035795666
85	0xbd8038e2	-0.062608495
86	0xbcfd82de	-0.030946191
87	0x3cf0fb60	0.02941674
88	0xbd49be82	-0.049253948
89	0xbd6a5b06	-0.057215713
90	0xbd3e40c2	-0.046448477
91	0x3b213520	0.0024598315
92	0x382bf000	4.0993094e-05
93	0xbc9f3134	-0.019432642
94	0xbccc2310	-0.024919063
95	0xbd8c9c23	-0.06865718
96	0xbd7ccdda	-0.061719753
97	0x3c380b90	0.011233225
98	0xbd6ad3b4	-0.057330802
99	0x3d848627	0.064709
100	0x39a86b00	0.00032123178
101	0x3d8d8d73	0.06911745
102	0xbc8200b4	-0.015869476
103	0x3d19d924	0.037560597
104	0x3c12bbb8	0.008955888
105	0x3cbe6cf8	0.02324532
106	0xbbce06b0	-0.0062874183
107	0x3a9bcac0	0.0011885986
108	0x3cb8c6d4	0.022555746
109	0xbd4bada0	-0.04972613
110	0xbb297e80	-0.0025862753
111	0x3cad3818	0.021144912
112	0x3cdb7d00	0.026793003
113	0xbd62f0b3	-0.05540533
114	0xbd399f60	-0.045318007
115	0xbd80f58e	-0.06296836
116	0xbd5e1040	-0.054214716
117	0xbd5addb4	-0.05343409
118	0xbcd1bcb4	-0.025602676
119	0x3bc5ff70	0.0060424134
120	0x3d046778	0.032325238
121	0xbd30bd56	-0.043149315
122	0xbb8c5380	-0.004282415
123	0x3d664956	0.056222282
124	0xbd64dd3a	-0.05587504
125	0x3d7e475a	0.062079765
126	0x3d86fd7f	0.06591319
127	0xbcaeee02	-0.021353725
128	0x3cf54b78	0.029943213
129	0xbd4dfcab	-0.05028979
130	0x3bde2170	0.0067788884
131	0x3d160660	0.036627173
132	0xbc98e136	-0.018662076
133	0xbd225b5c	-0.03963791
134	0xbced69f4	-0.028981186
135	0x3d8524cb	0.06501158
136	0x3b7084a0	0.0036700144
137	0x3d1edd94	0.038785532
138	0xbbaac810	-0.0052118376
139	0x3ca5d608	0.02024366
140	0xbd1908f6	-0.03736206
141	0x3d17f624	0.037099972
142	0xbd289ea0	-0.0411669
143	0x3bb04d50	0.00538031
144	0x3c8d056c	0.0172145
145	0x3bb02f40	0.0053767264
146	0x3a931680	0.0011221915
147	0x3d41696e	0.047219686
148	0xbb463800	-0.003024578
149	0xbd21e402	-0.039524086
150	0xbd4653b4	-0.04841967
151	0x3d8761b1	0.0661043
152	0xbd85aed3	-0.06527486
153	0x3c018fb8	0.0079078
154	0x3d794832	0.060859866
155	0x3d45d6b0	0.048300445
156	0xbc1593ec	-0.009129506
157	0x3cddaac0	0.027058959
158	0x3ce0bff4	0.02743528
159	0xbd5c370e	-0.05376344
160	0xbb8ba460	-0.0042615384
161	0x3d0f3594	0.034963205
162	0xbd1b25c6	-0.03787782
163	0x3d4a9528	0.049458653
164	0xbbc66130	-0.006054066
165	0x3d46c7a4	0.048530236
166	0xbcdaaee6	-0.026694726
167	0xbcde8e88	-0.027167574
168	0xbd413f5e	-0.047179572
169	0xbb0c5aa0	-0.0021416321
170	0x3d668bb6	0.056285582
171	0x3d7bdc36	0.061489306
172	0xbd8f6cb0	-0.07003152
173	0xbd1f2d71	-0.038861696
174	0xbc527204	-0.012844566
175	0x3d016280	0.031588078
176	0xbc3e711c	-0.011623647
177	0xba98ea40	-0.0011666492
178	0xbc056ac0	-0.008143127
179	0x3ca5cda8	0.020239666
180	0xbb51dee0	-0.0032023713
181	0x3ca9a118	0.020706698
182	0x3d199be0	0.03750217
183	0xbd66bdc7	-0.05633333
184	0x3cfd5df4	0.03092859
185	0x3d3cf538	0.046132296
186	0xbd1aa773	-0.03775735
187	0x3cf2ff4c	0.02966275
188	0x3c5e8740	0.013582051
189	0xbc2817bc	-0.010259565
190	0xbcd2da4e	-0.025738861
191	0x3d6b57ee	0.057456903
192	0xbd3cf4c6	-0.04613187
193	0xbd83e9c5	-0.064410724
194	0xbd5ecad0	-0.054392636
195	0xbd471c9e	-0.048611276
196	0xbd671052	-0.05641205
197	0xbcdb63ba	-0.026780952
198	0x3cc5b6e8	0.024135068
199	0x3c3e6ec8	0.011623092

output_layers.0.weight f4 [3, 200]
0	0xbd7f5c06	-0.06234362
1	0x3c7fa420	0.015603095
2	0xbd514088	-0.051086932
3	0x3cbb4d94	0.02286414
4	0xbd14d897	-0.03633937
5	0xbd60c928	-0.054879338
6	0x3c4c94f0	0.012486681
7	0x3c9b9b48	0.018994942
8	0x3c41c120	0.01182583
9	0xbd7b1e8c	-0.06130843
10	0xbca62e4e	-0.020285752
11	0x3d80f47f	0.06296634
12	0xbd85de51	-0.06536544
13	0xbc756658	-0.014978014
14	0xbd6dd0a2	-0.058060296
15	0xbd3ab3e5	-0.045581717
16	0x3d52379a	0.051322557
17	0xbd8c4c40	-0.06850481
18	0x3c5596a0	0.0130364
19	0x3b6d4480	0.003620416
20	0xbcba0bd6	-0.022710722
21	0xbd413a27	-0.0471746
22	0x3d44d35c	0.04805313
23	0x3c0cd528	0.008595742
24	0xbd80ddf3	-0.062923335
25	0x3cfaa8f4	0.030598141
26	0xbd3a96c6	-0.045553945
27	0xbb328c00	-0.002724409
28	0x3a587e80	0.0008258596
29	0xb9c59d00	-0.00037691742
30	0x3c70f0d0	0.014705852
31	0x3cee0418	0.029054686
32	0xbc93db26	-0.018048834
33	0x3d66cffa	0.056350686
34	0xbd1a87da	-0.037727214
35	0x3cce487c	0.025181048
36	0x3d120478	0.035648793
37	0x3d3cb70a	0.046072997
38	0xbce3dc9e	-0.02781516
39	0x3d01723c	0.031603083
40	0xbc83f538	-0.01610814
41	0xbb26d8c0	-0.0025458783
42	0xbb9ad290	-0.004724808
43	0xbd79bfeb	-0.060974043
44	0x3d8bd26b	0.068272434
45	0xbcb94a94	-0.02261857
46	0xbbd0e510	-0.0063749626
47	0x3d73b4ee	0.05949872
48	0xbd852b26	-0.065023705
49	0x3d469b5c	0.048488006
50	0xbcd0c9be	-0.025486823
51	0x3cab3df0	0.020903558
52	0xbc91503c	-0.017738454
53	0xbd817b7e	-0.063223824
54	0x3d56f93c	0.052483782
55	0xbd0d08d0	-0.034432232
56	0x3b7f1620	0.00389231
57	0x3cfdc420	0.030977309
58	0x3d88184f	0.066452615
59	0x3d8ad0ed	0.06778131
60	0xbd8669a0	-0.06563115
61	0x3d248320	0.040164113
62	0xbbc437b0	-0.005988084
63	0x3c0fe9e8	0.008783795
64	0xbcc9b186	-0.024620783
65	0x3c778ea8	0.0151096955
66	0x3d467e82	0.04846049
67	0x3bf0aaf0	0.007344596
68	0xbcfdc168	-0.030976012
69	0xbd0902e0	-0.033450007
70	0x3cc72668	0.024310306
71	0xbc67865c	-0.014131155
72	0x3d6652b6	0.056231223
73	0xbd4aebb8	-0.049541205
74	0xbd0fa702	-0.03507138
75	0x3d19fa4a	0.03759221
76	0x3c4baaf8	0.012430899
77	0x3c9765b0	0.018481106
78	0xbd0b67f9	-0.034034703
79	0x3d8ccc33	0.068748854
80	0xbd517a09	-0.051141772
81	0x3d8b0111	0.06787313
82	0x3d8560f5	0.06512634
83	0x3d6f8cfa	0.058484055
84	0xbd7359ca	-0.0594118
85	0x3d0f4350	0.034976304
86	0xbd24f619	-0.04027376
87	0xbafc6640	-0.0019256547
88	0xbd016997	-0.03159484
89	0xbd014363	-0.031558406
90	0xbd65c4d7	-0.056095924
91	0x3c6b0d90	0.014346495
92	0x3d527696	0.051382624
93	0xbbc42730	-0.005986117
94	0xbd167e10	-0.036741316
95	0x3d8a9ab9	0.06767792
96	0x3c3ebae8	0.011641242
97	0x3d2e8078	0.042602986
98	0x3d5612d4	0.05226405
99	0xbd43264e	-0.047643952
100	0xbd33e34e	-0.043917947
101	0xbcd5f9a8	-0.026120022
102	0x3d73495a	0.059396125
103	0x3ccadd50	0.024763733
104	0xbd121587	-0.03566506
105	0xbd87d631	-0.06632651
106	0x3d31ba86	0.043390773
107	0xbc59aee0	-0.013286322
108	0x3d586326	0.05282893
109	0xbb4e4a20	-0.0031477287
110	0xbd041996	-0.032250963
111	0xbaf281c0	-0.0018501803
112	0xbc4f4538	-0.01265078
113	0x3d875a07	0.06608968
114	0x3d2792e6	0.040911578
115	0xbca46cde	-0.020071443
116	0xbd70a236	-0.058748446
117	0xbd4a8c78	-0.049450368
118	0x3d8f7aaf	0.07005822
119	0xbd80eb3b	-0.06294867
120	0x3d3276ee	0.04357045
121	0xbc493810	-0.012281433
122	0xbd8df51d	-0.06931517
123	0xbcc159b0	-0.023602337
124	0xbd8db0c1	-0.06918479
125	0x3d601202	0.054704674
126	0xbd68a075	-0.05679365
127	0xbd3d4b1a	-0.0462142
128	0xbd8090d2	-0.06277622
129	0xbd5266c6	-0.051367544
130	0x3c09b210	0.00840427
131	0xbc6913dc	-0.014225926
132	0x3c0903c8	0.008362718
133	0x3c26d748	0.010183163
134	0x3d589d1c	0.052884206
135	0xbd0b23b6	-0.033969603
136	0x3ca60d28	0.020269945
137	0xbd326fb8	-0.043563575
138	0xbb59b260	-0.0033217892
139	0x3d16896e	0.036752157
140	0xbd4db19a	-0.050218202
141	0x3c9a0994	0.018803395
142	0xbd6ca932	-0.057778545
143	0x3a0f4880	0.00054658204
144	0x3d5cbc0c	0.053890273
145	0x3c9aca3c	0.018895261
146	0xbbba4fa0	-0.0056857616
147	0xbc37e1a8	-0.011223234
148	0xbd77993b	-0.060448866
149	0x3d10c44c	0.035343453
150	0x3c5913b0	0.013249323
151	0xba391780	-0.0007060692
152	0x3d0d910a	0.03456215
153	0xbc05c3f8	-0.008164398
154	0xbca3ba72	-0.019986365
155	0xbcb7a7c4	-0.022418864
156	0xbbb1bfe0	-0.0054244846
157	0x3cbb89fc	0.022892945
158	0x3d73feea	0.059569277
159	0x3d19e3e4	0.03757085
160	0xbb71ebc0	-0.00369142
161	0x3cdb6ee0	0.026786268
162	0xbd8e65a0	-0.06952977
163	0xbc8b45c2	-0.017001037
164	0xbc5c80a0	-0.013458401
165	0xbd7dda48	-0.061975747
166	0xbc963030	-0.018333524
167	0xbca0293c	-0.019550912
168	0x3c61d2f8	0.013783209
169	0xbd2c63c0	-0.042087317
170	0x3d4fad42	0.05070234
171	0xbd820592	-0.06348719
172	0x3c102248	0.008797236
173	0xbc74f3f8	-0.014950745
174	0xbbe945f0	-0.007118933
175	0xbbe6eab0	-0.00704702
176	0xbcb4c7c0	-0.022067904
177	0xbc5b1910	-0.013372675
178	0x3ac5e740	0.0015098825
179	0xbd8338fa	-0.06407352
180	0x3d89717f	0.06711101
181	0xbd75ddde	-0.060026042
182	0x3d1bc742	0.038031824
183	0x3d51d98c	0.05123286
184	0xbd1cf5d0	-0.038320363
185	0xbd8707bf	-0.06593274
186	0xbd82f5d3	-0.063945435
187	0x3c0e0b48	0.008669682
188	0x3c1674a0	0.009183079
189	0xbc793be8	-0.015212037
190	0x3d4f4538	0.05060312
191	0xbc53ba74	-0.012922872
192	0xbd2ac0e6	-0.04168787
193	0x3d612832	0.054969974
194	0x3ccc4944	0.02493728
195	0x3c95f95c	0.01830738
196	0x3b9c2410	0.004765041
197	0x3d363a3c	0.04448913
198	0xbd81c6d5	-0.06336752
199	0xbd611c42	-0.05495859
200	0xbd43620f	-0.047700938
201	0x3d6d65ea	0.05795852
202	0x3d46e064	0.04855384
203	0x3d6197ca	0.055076398
204	0x3d8112d5	0.0630242
205	0xbd6b188a	-0.05739645
206	0x3d3f9a44	0.04677798
207	0xbd3bd64c	-0.045858666
208	0xbd6d5df1	-0.057950918
209	0xbd812b92	-0.063071385
210	0xbc2e805c	-0.01065072
211	0x3c2c94a0	0.010533482
212	0xbcfffc22	-0.031248156
213	0x3d6903da	0.05688844
214	0xbcb54384	-0.02212692
215	0xbca83416	-0.020532649
216	0x3d433946	0.047662042
217	0x3d8d8d81	0.06911755
218	0xba944940	-0.0011313334
219	0xbd0c816d	-0.034303118
220	0x3c545968	0.012960769
221	0x3d852a8d	0.065022565
222	0x3d504608	0.050848037
223	0xbc9edfba	-0.01939379
224	0xbd258c2e	-0.04041689
225	0x3c9607ac	0.018314205
226	0x3c84a540	0.016192079
227	0x3ca4a8fc	0.02010011
228	0x3d3be8ee	0.045876436
229	0xbd420fb8	-0.04737827
230	0x3d2f7f10	0.042845786
231	0xbcf1719e	-0.029473122
232	0x3d7f3e42	0.062315233
233	0xbd75be37	-0.059995856
234	0x3d80a8bb	0.06282183
235	0xbd6758fa	-0.05648134
236	0x3c5df410	0.013546959
237	0x3bfddb70	0.0077471063
238	0xbcc049d8	-0.023472711
239	0xbd2d16f0	-0.042258203
240	0x3b0c8ce0	0.0021446273
241	0x3cfe7b88	0.031064764
242	0xbd8df7cf	-0.06932031
243	0x3d89f485	0.067360915
244	0xbd592deb	-0.053022306
245	0x3c8f954c	0.017527245
246	0x3c822798	0.01588802
247	0xbc5f9504	-0.013646368
248	0x3ce3df58	0.02781646
249	0x3d88de29	0.06682999
250	0x3c99e0e0	0.018783987
251	0xbd6440de	-0.055725925
252	0xbca5f51a	-0.020258475
253	0x3d422028	0.047393948
254	0x3cf0401c	0.029327445
255	0xbc3e8710	-0.011628881

output_layers.0.bias f4 [3]
0	0x3d2e3850	0.042534173
1	0xbd2fe1d2	-0.04293997
2	0x3d5a7242	0.05333162
